test.onnx (onnx, 35536 bytes, 9 tensors)

cnn_16_16_5.bias f4 [16]
000000 d8 6c 88 3d 30 cd 7c bd 50 51 e5 3c f4 1d 29 bd
       0.06661385 -0.06171912 0.027992874 -0.04128833
000010 a8 ae b8 3d 50 d8 31 3d e8 3a 18 bd ee f0 88 3d
       0.09017688 0.043419182 -0.037165552 0.06686579
000020 14 cb 95 3d e5 8f d7 bd 42 a4 b6 3d f4 6c d3 bc
       0.07314125 -0.105254926 0.089180484 -0.025808789
000030 00 c5 0e 3d d1 a6 52 bd 0c cd 4e bd a2 53 c0 3d
       0.034855843 -0.05142862 -0.050488517 0.09390952

cnn_16_16_5.weight f4 [16, 16, 5]
000000 a2 89 b5 bd 7c 3e 75 3d 40 dd e9 3c a8 f1 2a 3d
       -0.08864142 0.059874043 0.028547883 0.041734368
000010 40 8e 2f bb f0 ed a5 3c a4 27 11 3d fe 0d d5 3d
       -0.0026787668 0.020255059 0.035438195 0.104030594
000020 d0 61 ce bd 8f 7b 8e bd 0b 40 4a bd 88 f0 7c 3d
       -0.1007725 -0.06957161 -0.049377482 0.061752826
000030 8c 27 34 bd 50 68 88 3b e4 ca 8a bc a6 68 57 bd
       -0.043983027 0.0041628256 -0.016942449 -0.052590035
000040 ea 84 3c bd f8 ca 52 3c 32 ec d5 3d a2 05 b7 bd
       -0.046025194 0.012865774 0.10445441 -0.08936621
000050 72 0d 8f bd c6 20 83 3d e8 0a 91 bd f6 50 8c 3d
       -0.06984986 0.064027354 -0.07082158 0.068513796
000060 c4 02 e3 bc bc 15 65 3d 74 2f c6 3d f6 d2 9a 3d
       -0.02771128 0.05592893 0.0967702 0.07559769
000070 34 f7 7d 3d ec 85 be bc 54 b8 2a bd 46 8e e4 bd
       0.06200333 -0.023257218 -0.041679695 -0.11159949
000080 f8 07 2c bc 60 f4 0a bd e9 87 d1 bd 4e d1 16 bd
       -0.010499947 -0.03392446 -0.10231001 -0.036820702
000090 dc 43 8f 3d 34 31 28 3d 10 c5 4b 3c 96 3d de 3d
       0.06995365 0.04106255 0.01243712 0.1085159
0000a0 ac b9 c6 bc 34 01 aa bc 90 35 b5 bb 6a 69 a8 3d
       -0.024258457 -0.020752527 -0.005530067 0.08223231
0000b0 c8 8c 72 3d d6 db e3 3d 74 5a 31 3d 48 fd 23 3c
       0.05921629 0.11125915 0.043299153 0.010009117
0000c0 80 92 b3 3a 62 ef 07 bd f2 8c 66 bd 22 41 b5 bd
       0.0013700277 -0.033187278 -0.05628676 -0.08850314
0000d0 f8 e4 e3 bd 9e 8c d9 3d 90 5a cb bb c5 0d e4 bd
       -0.11127657 0.10622524 -0.0062058643 -0.11135439
0000e0 f4 42 41 3d f6 fe 44 bd fe 8f a4 3d 90 de c5 3d
       0.047182992 -0.048094712 0.08035277 0.09661591
0000f0 5a d1 20 bd c1 d8 db bd a0 cd ef 3c ef 27 70 bd
       -0.039262153 -0.10734702 0.029272854 -0.058631834
000100 7a fd a2 bd f0 0d 8d bd 48 02 41 3c 1a 67 94 3d
       -0.07958503 -0.06887424 0.011780329 0.072462276
000110 60 39 de 3b e0 e8 41 bd 38 e2 37 3c 10 4a 14 3d
       0.006781742 -0.047341228 0.011223368 0.036203444
000120 9a 1d 6e bd c0 e4 a0 3d bc 10 46 3d 88 75 96 bc
       -0.0581337 0.078561306 0.048355803 -0.01836659
000130 71 1b e1 bd 16 50 70 bd d2 ee dc 3d e4 cc be bc
       -0.10991562 -0.058670126 0.10787739 -0.023291059
000140 dd 6c 72 bd 88 fe d7 3d 10 c4 47 bc 3c 88 8d bc
       -0.05918585 0.10546595 -0.012192741 -0.017276876
000150 58 f3 e0 3c 66 c0 c3 bd 1a ca 3a bd 2c af b7 bc
       0.027459785 -0.095581815 -0.045602895 -0.022422396
000160 19 34 5c bd 54 56 aa bd 1b 5c c0 bd 6c fa ce 3d
       -0.05376062 -0.08317247 -0.09392568 0.10106358
000170 d0 70 13 3c 8e 33 d2 3d c8 e2 d8 3d 60 12 bd 3c
       0.008999065 0.102637395 0.1059013 0.023080051
000180 b9 2d 5a bd c4 54 2b 3d 7f f7 9f bd c6 50 3e bd
       -0.05326626 0.041828886 -0.07810878 -0.04646375
000190 af d9 d3 bd c0 8e 6d 3c 1c 38 74 3d 84 6e 2e bd
       -0.10344254 0.014499366 0.059623823 -0.042585865
0001a0 a0 6e 76 3d d0 74 12 bc ae c8 97 bd 76 e3 cc bd
       0.060164094 -0.008938983 -0.074113235 -0.10004322
0001b0 40 bd b4 3a c0 df 6b 3d c0 7f a9 ba a0 62 d4 3d
       0.0013789311 0.05758643 -0.0012931749 0.10370374
0001c0 30 40 a5 bb 12 f5 a7 bd c1 27 e2 bd 30 62 dd 3c
       -0.005043052 -0.0820104 -0.11042739 0.027024359
0001d0 ed ba af bd c0 78 0e 3b 40 ba eb bc 10 dc 52 bd
       -0.08580575 0.0021739453 -0.028775334 -0.0514794
0001e0 96 2d 5c bd 3c 05 c0 bd 58 a7 e4 3c 70 36 f8 bb
       -0.05375441 -0.093759984 0.027911827 -0.007574849
0001f0 90 94 a8 3c ea 62 b2 bd a4 da 5b bd 18 fe 92 3c
       0.020578653 -0.087102726 -0.05367531 0.017943427
000200 bf ae dd bd f2 70 cd bd 80 fc 8e ba 2c d0 cf 3d
       -0.10824346 -0.10031308 -0.0010908991 0.101471275
000210 e4 c3 d7 3d ec e8 aa bc 90 88 65 bc 3a e7 cf bd
       0.1053541 -0.020863019 -0.01400961 -0.10151525
000220 14 e8 9a 3d 94 25 6d 3d 7a 20 c3 3d ee 0b 62 bd
       0.07563797 0.057897165 0.09527679 -0.05518716
000230 38 2c 04 3d f8 94 aa 3d d4 81 e4 bd 1d 69 c2 bd
       0.032268733 0.08329195 -0.11157575 -0.09492705
000240 e8 ae 50 3d c5 08 4b bd 2c 1f 23 3d 36 a2 d1 3d
       0.050948054 -0.04956891 0.03982465 0.102360174
000250 a8 9b ae 3d 48 06 3a bc 04 66 26 3d fc 6d 32 3d
       0.08525783 -0.011354037 0.040624633 0.04356192
000260 24 40 b6 bc 28 c6 ff bc b0 fb 4d 3d c5 7b cd bd
       -0.022247382 -0.031222418 0.050288856 -0.10033373
000270 d6 ff 9c 3d ac 9f 8c 3d c0 32 86 3b 1e d3 d5 3d
       0.07665984 0.068663925 0.0040954053 0.10440658
000280 b4 75 b7 3d f4 9a 06 bd 40 0f a2 3b 10 61 f6 3c
       0.08957997 -0.03286262 0.0049456656 0.03007558
000290 40 ec bd bd d2 96 81 3d c0 3f a8 bc 80 03 1d 3c
       -0.09273577 0.06327595 -0.02053821 0.009583354
0002a0 da f5 2e bd 9c 18 0f bd 1a ff 98 bd 20 05 62 bb
       -0.04271493 -0.03493558 -0.07470532 -0.0034487918
0002b0 42 94 bf 3d a6 c5 bd 3d 35 17 d2 bd bf 4a d6 bd
       0.0935445 0.09266214 -0.10258333 -0.104634754
0002c0 92 88 a5 bd 67 60 af bd e2 27 45 bd 90 bd c1 3b
       -0.08082689 -0.08563309 -0.04813374 0.00591249
0002d0 76 c5 ca 3d 4a 3b 8c bd 62 6a a0 bd bc 1e 92 bc
       0.09900944 -0.06847246 -0.07832791 -0.01783692
0002e0 c0 d1 23 bd 2c fe cd 3d 68 2c 61 bd 78 cf 7c bc
       -0.039994955 0.10058245 -0.05497399 -0.015430324
0002f0 78 ae c7 bd 40 ad dd ba 2e 50 ad bd 24 de 98 3d
       -0.09750074 -0.0016912594 -0.08462559 0.07464245
000300 7c 83 55 3d 58 3f 17 bd 6c 83 23 3d 14 ba 27 3d
       0.052127346 -0.036925644 0.039920256 0.040948942
000310 df 75 7e bd a2 58 84 3d 10 62 88 bd 38 dc 09 3d
       -0.06212413 0.06462218 -0.06659329 0.033657283
000320 78 4e 6a 3d 12 0c 45 bd b2 76 67 bd 00 37 0e 3a
       0.05720374 -0.048107214 -0.05650968 0.0005425066
000330 f8 45 da 3d e4 9c 55 3d 56 59 bc 3d 64 b0 08 3d
       0.10657877 0.052151576 0.09196727 0.033371344
000340 60 4e a4 3c ac 92 3f bd e4 95 57 3d d8 76 97 3d
       0.020056903 -0.046770737 0.05263318 0.073957145
000350 c4 e2 8e 3d 44 b9 d9 bd 10 1d fb 3c 70 8e 7b 3c
       0.06976846 -0.1063104 0.030653507 0.015353784
000360 34 04 2f bd e0 a0 0a bb d8 d5 c2 bc c3 56 ad bd
       -0.042728618 -0.0021153018 -0.02378361 -0.08463814
000370 4a 8f 21 bd 65 0e de bd 0a a3 bc 3d 04 9c 37 3d
       -0.03944329 -0.10842589 0.09210785 0.044826522
000380 40 86 9a bc 50 2f a4 bd 2c 6b 9e 3d 08 d6 0f bd
       -0.018862844 -0.08016837 0.07735285 -0.035116225
000390 55 47 cb bd 08 9d e5 3c e9 c3 c8 bd 78 b4 5d 3d
       -0.09925715 0.02802898 -0.09802992 0.054127187
0003a0 18 02 33 3d b8 53 8b bc b4 f0 6b 3d d0 a1 8f bb
       0.04370317 -0.017007694 0.0576026 -0.004383303
0003b0 4c 43 50 3d 04 bc fb bc db a8 9f bd 76 a2 a3 bd
       0.05084543 -0.030729301 -0.077958785 -0.07989971
0003c0 40 ff 6b 3c c4 f5 24 bd 80 ca 6f 3b 46 2f a1 bd
       0.014404118 -0.040273443 0.0036589205 -0.07870345
0003d0 4a 83 a2 3d 65 50 d2 bd 6b b4 8f bd 00 3d 0f ba
       0.07935198 -0.1026924 -0.07016834 -0.0005464107
0003e0 88 21 84 bd 08 82 50 bd 2c 5a bc 3d 42 48 b3 bd
       -0.06451708 -0.050905257 0.091968864 -0.087540165
0003f0 53 4f d5 bd 48 e2 94 3c a0 42 15 3b 00 d3 4f 3d
       -0.104155205 0.018174306 0.0022775307 0.050738335

cnn_16_32_3.bias f4 [32]
000000 78 5d 5d 3d 94 4c d2 3d f8 bf f5 3d 94 52 0b 3e
       0.054044217 0.10268512 0.11999506 0.1360572
000010 8e 88 0a 3e 90 8b 86 bc 72 4f f8 bd 2f bb a1 bd
       0.13528654 -0.01642397 -0.12124528 -0.078970306
000020 dc 82 e6 3d 2c 2b ae bd 2c e3 bf 3d 30 50 73 bd
       0.11255428 -0.08504328 0.093695015 -0.059402645
000030 dc 86 8e bd 56 00 70 bd e8 dd 3c 3d 3d 01 e7 bd
       -0.06959316 -0.05859407 0.046110064 -0.11279533
000040 f8 32 35 3d f4 dd 60 3d 76 2b d7 3d 98 c4 5c 3d
       0.04423806 0.05489917 0.105063364 0.053898424
000050 4e 25 09 be 14 26 15 3d 84 de 12 be 4e d3 a2 3d
       -0.13393137 0.036413267 -0.14342695 0.079504594
000060 dc c0 aa bd d8 33 3c 3d e4 25 fe bd 10 ca 11 3e
       -0.08337566 0.04594788 -0.12409571 0.14237237
000070 90 7b 52 3d d5 fb a5 bd 6c 96 d4 3d c5 46 ed bd
       0.05138737 -0.08104674 0.10380253 -0.11585764

cnn_16_32_3.weight f4 [32, 16, 3]
000000 00 a8 8f 3c 90 cd 86 bc 81 a7 cb bd f8 b1 ed 3c
       0.017536163 -0.016455442 -0.09944058 0.029015526
000010 10 3c 0f bc e0 49 12 3d 70 fb eb 3d 9c 11 eb 3d
       -0.008742347 0.035714984 0.11522567 0.11477968
000020 a4 39 61 bd c0 0c 78 bc 48 33 d8 3c a4 be 01 be
       -0.05498661 -0.015139759 0.02639164 -0.1267038
000030 98 4d 62 3d e6 16 a8 3d cc f5 3a 3d 98 3c 22 3d
       0.05524978 0.082074925 0.045644566 0.039608568
000040 9c 7b 91 bd c8 09 dd 3c 2a 2c ab 3d b1 16 03 be
       -0.07103655 0.026982203 0.08358033 -0.12801625
000050 58 fd c3 bd a2 a5 c4 3d 40 ac d0 3d 26 db 88 3d
       -0.09569806 0.096019045 0.10189104 0.06682424
000060 00 9b 10 3a e2 52 0e be 50 c7 4c bd 2c 6e d7 3d
       0.0005516261 -0.13898805 -0.049994767 0.105190605
000070 30 e9 0c 3e c9 59 8a bd 2b d7 84 bd 7a 2b ba 3d
       0.13760829 -0.067554064 -0.064863525 0.09090324
000080 3e ec 8d 3d 3c 6a 54 3d 60 28 77 3c a4 8e d8 bd
       0.06929825 0.051859125 0.01508531 -0.105740815
000090 86 d3 a5 3d 02 fa a2 bd 90 2d ca 3c 56 f1 aa 3d
       0.080969855 -0.079578415 0.024679929 0.083468124
0000a0 38 b6 f6 bc 4a 50 b7 3d 06 46 05 3e 2f f9 b4 bd
       -0.030116186 0.08950861 0.13014993 -0.088365905
0000b0 bb bb c1 bd 40 f3 de 3d d0 ca 05 be bc 06 a0 bd
       -0.09459635 0.1088624 -0.13065648 -0.078137845
0000c0 90 ba f1 3d 7a a3 ae bd cc b4 85 3d 46 69 06 3e
       0.11803162 -0.085272744 0.06528625 0.13126096
0000d0 c8 ca 94 3c a0 5c 80 bc 58 80 8a bd 6e b5 0c 3e
       0.0181631 -0.015669167 -0.06762761 0.13741085
0000e0 66 56 f2 bd 60 c4 fd 3c 90 71 02 3d d4 41 a1 3d
       -0.118328854 0.030977428 0.031846583 0.07873884
0000f0 80 9f e8 ba 14 92 98 3d 66 9b c7 3d b8 3c 87 3d
       -0.001774773 0.07449737 0.09746437 0.06603378
000100 b8 77 ec bc 50 aa 78 3d a0 7d 84 bb 9c 97 bb bd
       -0.02886568 0.060709298 -0.004043296 -0.091597766
000110 14 f9 ca 3d 40 2c 91 3c 28 e8 00 be c0 48 1c bd
       0.09910789 0.017721295 -0.1258856 -0.038155317
000120 80 54 7c bb d4 82 08 bd 16 80 b5 3d 82 22 04 3e
       -0.0038502514 -0.033327892 0.08862321 0.12903789
000130 a0 6f f1 3b e8 d3 10 3e 20 f7 ce 3b 88 b4 dd 3d
       0.007368043 0.14143336 0.0063160807 0.10825449
000140 56 ff cd bd f9 d6 07 be fa 02 34 bd 76 6b d9 bd
       -0.10058467 -0.132656 -0.04394815 -0.106162
000150 0f 09 b2 bd d4 0c 47 bd 94 b1 b3 bc c8 ca 3b bd
       -0.08693134 -0.04859622 -0.021935262 -0.045847684
000160 c0 ff 83 3b 92 fc 42 bd 40 66 5c bc 00 f7 ef ba
       0.0040282905 -0.04760415 -0.013452113 -0.0018307865
000170 c0 63 c3 bc 30 11 04 3c 0f ee e6 bd e0 be e8 3b
       -0.023851275 0.008060738 -0.11275875 0.007102832
000180 68 d9 e3 bc 19 a0 fd bd a0 51 8f bb 16 35 ba bd
       -0.027813628 -0.12384052 -0.004373744 -0.090921566
000190 70 ad 08 be 8a 76 a9 3d 56 1c 08 be a4 2a 68 3d
       -0.13347411 0.08274563 -0.1329206 0.05668129
0001a0 00 75 82 3c b0 04 fb 3d 80 c2 ee 3b d6 29 09 3e
       0.01592493 0.122567534 0.00728637 0.13394865
0001b0 ce 9c 08 3e 5a 0a 00 be 30 08 08 3d a2 a6 81 3d
       0.13341066 -0.12503949 0.033210933 0.06330611
0001c0 08 9f 85 3c 3c c8 50 bd fe dc b8 bd 70 1b 71 bd
       0.016311184 -0.05097221 -0.09026526 -0.058864057
0001d0 10 6e 99 bc 78 66 6d bd 3f c5 09 be c4 1f 09 3e
       -0.01872924 -0.05795905 -0.1345415 0.13391024
0001e0 50 cd df 3c 8f 47 0a be 56 c0 c4 3d 78 03 e7 bd
       0.02731958 -0.1350386 0.09606998 -0.112799585
0001f0 cc 98 a3 3d 80 2e 33 bd a3 b7 01 be 52 3f 06 be
       0.07988128 -0.043745518 -0.12667708 -0.13110092
000200 02 b2 cd 3d 92 ec bc bd ca 23 ea bd 90 63 c9 3d
       0.10043718 -0.0922481 -0.114326075 0.09833443
000210 3a 80 4f bd a2 1e 03 be c4 5c e1 3d 04 e2 2e 3d
       -0.050659396 -0.12804654 0.11004022 0.042696014
000220 58 fa ad bd d0 8a 92 bd ba 7c 0c be a1 17 8d bd
       -0.08495015 -0.07155383 -0.13719454 -0.068892725
000230 bf bd ad bd 02 6c 24 bd 34 1f 44 3d 16 a8 01 3e
       -0.08483457 -0.040142067 0.04788132 0.12661776
000240 00 91 36 3c e3 77 0c be 9e cc bb 3d 16 06 a0 bd
       0.011142969 -0.13717608 0.09169887 -0.07813661
000250 60 3b 6a 3d 9c 92 ea 3d 68 2c cf bd 40 9a d7 3d
       0.05718553 0.11453745 -0.10115892 0.10527468
000260 48 21 10 3d cc 72 f8 3d 60 1f 5f 3d 54 87 a9 3d
       0.03518799 0.12131271 0.05447328 0.08277765
000270 54 7b 36 3d 44 d0 a7 bd fc 61 05 3d 40 79 0d bc
       0.04455121 -0.081940204 0.03256415 -0.008634865
000280 ec 13 51 3d bc fa a4 3d 94 c7 a2 3d ac fa ad bc
       0.05104439 0.08055636 0.07948223 -0.021237694
000290 80 08 64 bb 5b a3 06 be 66 34 6c bd 64 8b ce bc
       -0.0034795105 -0.13148253 -0.05766716 -0.025212951
0002a0 9c e0 0b 3e 48 40 dc bd 90 09 c7 3d 2a 43 d2 3d
       0.136599 -0.10754448 0.09718621 0.10266717
0002b0 0a 52 8b 3d e8 a0 2b 3d 66 b4 44 bd c0 ea b5 bb
       0.06802757 0.0419015 -0.048023604 -0.005551666
0002c0 98 5f e3 bd 28 3a e1 3c aa 16 ca 3d 10 be 4b 3d
       -0.111022174 0.027493551 0.09867604 0.049741805
0002d0 9b c8 08 be c4 7f 59 3d 08 8b a7 3d 6c 25 1d bd
       -0.13357775 0.053100362 0.08180815 -0.038365766
0002e0 24 f2 62 3d 5c 3f 72 bd 00 12 ce 3d 36 d1 b4 bd
       0.055406705 -0.059142455 0.10062027 -0.08828966
0002f0 c0 cc 0e 3e 00 0e a2 3d 32 20 8b 3d f4 4e 07 be
       0.13945293 0.079128265 0.0679325 -0.13213712
000300 71 12 c0 bd d0 55 2b bc e0 84 0b bd 70 cb 7c 3c
       -0.093785174 -0.010457471 -0.034062266 0.015429363
000310 74 2b 45 3d 44 a0 b4 bc 44 6d a7 3d 78 74 d3 3c
       0.048137143 -0.022049077 0.08175138 0.025812373
000320 14 2f ed bd dc 84 92 bd 44 16 a2 3d 54 38 0d be
       -0.11581245 -0.07154247 0.07914403 -0.13791019
000330 b4 49 e4 bd 26 a5 a1 3d 44 c5 2a bd d8 e7 6e 3d
       -0.1114687 0.07892828 -0.041692033 0.058326572
000340 00 c2 c0 3b 0c ce 66 bd b7 94 a8 bd ea 02 3e bd
       0.0058825016 -0.056348845 -0.0823149 -0.046389498
000350 91 32 04 be d8 07 b6 bd d0 4b 75 3c 8b 90 bc bd
       -0.12909915 -0.08888215 0.014971688 -0.09207257
000360 bc 1d f6 3d da 90 42 bd 72 62 d2 bd ae 49 5b bd
       0.1201739 -0.047501422 -0.10272683 -0.053537063
000370 47 80 9e bd e8 7f b1 3d 02 fb 67 bd 68 54 fc 3d
       -0.07739311 0.08666974 -0.056635864 0.12320787
000380 8c b2 85 3d 62 3d 02 bd 06 85 47 bd 02 09 0f 3e
       0.06528196 -0.03179682 -0.048710845 0.1396828
000390 07 df a1 bd dc d6 ec 3d a0 97 8c 3c d6 e9 3d bd
       -0.07903867 0.11564419 0.017162144 -0.04636558
0003a0 26 70 c9 3d 00 bf e4 3b 1e f3 c5 3d a4 8c 25 3d
       0.09835844 0.006980777 0.096655115 0.04041733
0003b0 ce 8a 02 be c4 f5 5a 3d 08 58 e6 3d e4 e6 0d 3e
       -0.12748262 0.053457037 0.112472594 0.13857609
0003c0 a6 3d 7f bd b2 35 b1 3d 2e 9d f7 bd d4 f4 70 3d
       -0.062314652 0.0865282 -0.120905265 0.058827236
0003d0 a7 67 0c be 00 75 7c bc a0 66 64 3d 5b 83 09 be
       -0.13711415 -0.015408754 0.055761933 -0.13429014
0003e0 64 75 c1 bc 08 e0 4d bd f8 2e 24 bd bc 2f d7 3d
       -0.023615547 -0.05026248 -0.040083855 0.105071515
0003f0 60 b3 90 bc bd af a2 bd 38 6f 75 3d 78 0a 60 3d
       -0.017663658 -0.07943676 0.05992052 0.054697484

fci.bias f4 [16]
000000 10 04 3f bb 69 7c 70 3d 8f a0 55 bd ab 20 0e 3d
       -0.0029146709 0.058712397 -0.052155074 0.034699123
000010 0f ee 11 3d 15 65 57 3d a4 6b 4b bc b8 dc a9 bb
       0.03562742 0.052586634 -0.0124158 -0.0051837824
000020 4f bc 04 3d 20 74 95 3a eb 78 39 bd 5e 6f e1 3c
       0.032406148 0.0011402406 -0.045281332 0.027518924
000030 df 4a 2e 3d 11 a4 22 3d ae 87 ee bc 3d c9 0f 3d
       0.04255187 0.039707247 -0.029117431 0.035104025

fci.weight f4 [16, 288]
000000 0a 7b 94 bc 12 f0 f0 3c 08 de 1a bd 40 b3 83 bb
       -0.018125076 0.02941135 -0.0378094 -0.004019171
000010 6a 02 2d bd f4 57 06 bd f8 14 4c bd c6 cb d3 3c
       -0.04223863 -0.032798722 -0.049824685 0.025854003
000020 46 ba 4f bd 06 f3 c9 bc 05 ee 5a bd 36 6f dd 3c
       -0.050714754 -0.024652015 -0.05344965 0.027030569
000030 28 ae ea 3b e0 99 9d bc 9e 9b 9e 3c 82 d8 0b bd
       0.0071618743 -0.019238412 0.019361313 -0.034142025
000040 40 7a 39 bc 4b 77 58 3d 6d 2c 4f bd 50 00 28 bd
       -0.011320651 0.05284814 -0.050579477 -0.041015923
000050 ab 6d 24 3d 76 c9 97 3c cb e5 12 3d a9 57 21 3d
       0.04014365 0.018528681 0.03586368 0.03939024
000060 3b bb 1e 3d 96 29 a5 3c 60 41 86 ba fc 06 71 3c
       0.038752776 0.020161431 -0.0010242872 0.014711138
000070 6b b2 5e 3d 8c 3e 5b 3c 6f 29 3d 3d e4 a6 22 bc
       0.05436937 0.013381612 0.046182092 -0.009927485
000080 67 a3 47 3d 8e 98 d7 bc 78 21 61 bc c1 4a 3b bd
       0.048739817 -0.02631786 -0.01374089 -0.045725588
000090 05 d7 25 3d c2 38 c0 bc f0 29 26 bd 71 24 41 bd
       0.04048826 -0.023464564 -0.04056734 -0.047153894
0000a0 c7 0e 67 bd 49 e8 59 3d bf 57 1e 3d a2 e2 df 3c
       -0.056410577 0.05320004 0.0386579 0.027329747
0000b0 9b 57 47 3d b3 0a 71 3d 35 12 65 bd 60 69 98 bc
       0.04866753 0.058848094 -0.055925567 -0.018604934
0000c0 eb 86 20 bd 42 69 e8 3c ed 39 35 3d c2 c1 e4 bc
       -0.039191168 0.028370503 0.044244695 -0.027924422
0000d0 78 28 a8 3b a0 4b 96 bb 5e 42 10 bd c0 4d 53 bc
       0.0051317774 -0.004586652 -0.035219543 -0.012896955
0000e0 60 d5 64 bc d1 4d 12 3d 90 cd 01 3b ca b7 8b 3c
       -0.013966888 0.035718743 0.0019806363 0.01705541
0000f0 dd b9 3b 3d d0 a7 ad bb b6 34 fb 3c a4 ad 54 3c
       0.04583155 -0.005299546 0.030664783 0.012980852
000100 de 82 32 bd 32 96 85 3c 56 72 b4 3c 7e 91 9b 3c
       -0.043581836 0.01630697 0.022027176 0.018990275
000110 1c 5d 0c bc ab 3c 6b 3d 96 c7 e2 3c 4a b8 c9 3c
       -0.008567121 0.057430904 0.02768306 0.024624009
000120 64 91 5b 3c 7a d1 8d 3c c4 14 ff bc 79 8c 60 bd
       0.013401363 0.0173118 -0.031137832 -0.054821465
000130 54 29 4a bd 98 e9 93 3b 1c 40 7c 3c 20 6d 13 bd
       -0.04935582 0.0045139305 0.015396144 -0.03599274
000140 58 05 c1 bc d0 1b 42 3b b3 ab 3c 3d 70 51 21 bd
       -0.023562118 0.0029618628 0.046062183 -0.039384305
000150 3f 4a 55 3d 4c 65 47 3c 97 c0 70 3d a4 5c 82 bc
       0.05207276 0.012170147 0.058777418 -0.015913315
000160 cd b8 52 3d eb 1e 4c 3d 5a 21 3e bd 33 21 42 3d
       0.05144577 0.049834173 -0.046418525 0.047394942
000170 50 05 b4 bc 56 ac ad 3c 48 bd 3a bd 02 48 c7 3c
       -0.02197519 0.02120034 -0.04559067 0.024326328
000180 7b fe 59 3d 12 db b6 3c 84 54 2e bc 07 f8 65 3d
       0.053221207 0.022321258 -0.010640267 0.05614474
000190 ee cf 88 3c e6 7c d6 3c ff 88 32 bd 1e 77 c3 bc
       0.016700711 0.026182603 -0.04358768 -0.02386051
0001a0 74 ec b4 bc d8 9d a0 3b ce 7c f0 3c 80 08 4b bb
       -0.022085406 0.004901629 0.029356387 -0.0030980408
0001b0 e8 43 89 bb 37 26 6d 3d a6 c7 a3 3c d8 08 ac bb
       -0.0041890033 0.057897773 0.01999266 -0.0052500777
0001c0 10 f4 72 bb 8c 16 3f bd 50 9f 15 bd 9c a6 1f bd
       -0.0037071742 -0.04665236 -0.036528885 -0.03897725
0001d0 80 66 c5 bb cc 37 62 3c a8 8a c5 3b 11 e5 51 3d
       -0.006024182 0.013807248 0.006028492 0.051243845
0001e0 c4 76 33 bd 60 72 03 bd 74 02 66 bd 4a e5 fe 3c
       -0.043814436 -0.0320915 -0.056154683 0.031115193
0001f0 95 9b 68 3d f9 93 2e 3d 18 b1 95 bc 60 5a dd bc
       0.056789 0.042621586 -0.018272921 -0.027020633
000200 32 16 bd 3c ff f0 14 3d 7d 44 08 3d 3a 41 1f bd
       0.023081873 0.036362644 0.03326844 -0.038880564
000210 18 73 fa bc b9 da 27 3d 64 26 04 3c 2c 71 9d bc
       -0.03057246 0.040980075 0.008065794 -0.019219004
000220 64 27 25 bc 49 d9 6e bd c8 30 46 bd d0 cd de bb
       -0.010080192 -0.058312688 -0.048386365 -0.006799437
000230 db 80 2f 3d 1a 60 d4 3c 00 d1 07 3a 55 99 2d 3d
       0.042847496 0.025924731 0.0005180985 0.042382557
000240 88 44 01 bd 8b e6 6b 3d 36 f2 1b bd 30 1f 07 3b
       -0.031559497 0.05759291 -0.038072787 0.0020617954
000250 1e ec 8b bc 15 50 36 bd f8 41 81 3b f9 68 64 3d
       -0.017080363 -0.044509966 0.0039446317 0.055764172
000260 5e 51 a6 3c 7c d7 58 3c e1 ab 5f 3d 00 48 47 bb
       0.02030247 0.013234969 0.054607276 -0.0030407906
000270 00 e6 51 39 5d 29 45 bd c4 0b 2f 3c 0a f6 ab 3c
       0.00020017475 -0.04813515 0.0106839575 0.020991344
000280 36 88 ad 3c fa 06 ca 3c a2 e2 90 3c bb d9 62 bd
       0.021183114 0.02466153 0.017686192 -0.055383425
000290 06 c4 01 bd 30 cb 20 bc d9 79 5e 3d 96 9b 9d 3c
       -0.031681083 -0.009814069 0.05431542 0.019239228
0002a0 d0 2c dd bb 03 3b 2d 3d d0 24 11 bb 18 bc f7 3b
       -0.006749727 0.042292606 -0.0022147186 0.0075602643
0002b0 a6 ef a5 bc 44 1a 40 bd 93 94 f7 bc 90 69 3e 3b
       -0.020255875 -0.04690005 -0.030222213 0.002905462
0002c0 e8 39 57 bd 00 c4 c9 b9 c8 7e 82 3b 06 55 c0 bc
       -0.052545458 -0.0003848374 0.0039823987 -0.023478042
0002d0 a0 3b af bb 80 f4 e4 39 96 45 6a bd b4 64 5d bc
       -0.005347684 0.00043669716 -0.05719527 -0.013512779
0002e0 20 3f b5 bc b0 6b 26 bc f4 e0 07 bd 21 17 3c 3d
       -0.022124827 -0.010157511 -0.033173516 0.045920495
0002f0 b1 55 64 3d 06 af 5b bd f5 37 2c 3d e8 cc 85 3b
       0.055745784 -0.053633712 0.042045552 0.0040832646
000300 83 b1 0e bd df 92 0e 3d 2c 87 51 3c 5b 0c 64 bd
       -0.034837257 0.034808036 0.012788575 -0.055675846
000310 42 fb 04 bd 20 65 1a bd 80 26 30 ba a0 f7 83 bb
       -0.03246618 -0.037694097 -0.0006719604 -0.004027322
000320 7a c8 83 bc 48 37 0c bd 13 60 3a 3d 5b 34 1e 3d
       -0.016086806 -0.034232408 0.04550178 0.03862415
000330 1b bd 69 3d b8 50 a5 3b 17 4d 5f 3d ce 86 b7 3c
       0.05706511 0.005045023 0.054516878 0.022403147
000340 f8 dd fe 3b c5 ca 0f 3d 9f af 33 3d de fa 8b 3c
       0.0077779256 0.035105485 0.043868657 0.017087396
000350 24 f8 6f 3c 70 ea 38 bc 30 bb 63 3b e0 be 02 3b
       0.014646564 -0.011286363 0.0034749024 0.0019950196
000360 bf 64 69 3d 66 ae fe bc ea 0a 89 3c fb ee 1c 3d
       0.056980845 -0.031089019 0.016728837 0.038313847
000370 a2 1e 85 3c f4 5d 60 bd 60 ac c3 ba 36 68 05 bd
       0.016249958 -0.0547771 -0.0014928691 -0.032570086
000380 00 d6 15 bd 0a 64 c9 bc 79 fb 0b bd 54 5a 0d 3c
       -0.03658104 -0.024583835 -0.03417537 0.008627493
000390 40 71 cd bc 0a 0a cd bc ea 9a 9d 3c 0a 14 03 bd
       -0.025078416 -0.025029201 0.019238908 -0.032001533
0003a0 67 26 67 bd 34 7c 11 bd b0 fd b0 bb 2a 91 88 3c
       -0.056433108 -0.03551884 -0.0054013357 0.016670782
0003b0 88 4e c1 3b 8c 82 84 bc f3 d6 40 3d 8c b1 da bc
       0.005899254 -0.01617553 0.04707999 -0.02669599
0003c0 e0 c5 64 bd e6 ca f0 3c 32 f5 20 bd d8 90 b8 3b
       -0.05585277 0.029393625 -0.039296336 0.005632501
0003d0 af 50 0c 3d 62 e5 70 bd 77 a8 f2 bc c6 1a e7 3c
       0.034256633 -0.058812506 -0.029621346 0.028211009
0003e0 70 e3 a1 bc af 7f 2c 3d a6 ba ff 3c fb f9 09 bd
       -0.019761771 0.042113956 0.03121693 -0.033685666
0003f0 30 5e 6a 3b 38 34 a6 bc f8 df 07 bd 58 56 4b bd
       0.0035761707 -0.020288572 -0.033172578 -0.04964289

fco.weight f4 [1, 16]
000000 00 6b 02 3b 4c 9a 86 bd c0 85 cf bc 90 b8 d8 bd
       0.0019900203 -0.065723985 -0.025332332 -0.105820775
000010 28 0f 73 3e c2 a9 24 3e 00 d3 96 bb 88 21 38 3d
       0.2373625 0.16080382 -0.00460279 0.044953853
000020 9c 79 a5 3d 90 b7 1b 3e a0 e1 22 be 14 55 81 3d
       0.08079836 0.15206742 -0.15906382 0.063150555
000030 9a a7 46 3e 00 1c 92 3d 4a f8 55 3e 00 2f 43 3e
       0.19399872 0.07134247 0.20895496 0.19060898

input_layer.bias f4 [16]
000000 02 39 9c bd b8 82 ac 3c 50 52 07 3d 44 e8 6b bd
       -0.07628061 0.021058425 0.033037484 -0.057594553
000010 fe 58 b8 bd 10 81 1d 3d 80 29 7e 3b 00 bc ba b9
       -0.09001349 0.03845316 0.003878206 -0.00035616755
000020 0c 6c c1 3d b4 1b c4 3d 98 24 ed bd 0e 3e ef bd
       0.094444364 0.095755965 -0.11579245 -0.11681758
000030 80 a4 f9 3d 6e c1 b7 3d 88 0d 80 3d d4 c5 47 3d
       0.12189579 0.08972441 0.06252581 0.048772648

input_layer.weight f4 [16, 8, 8]
000000 50 3a 87 bc 40 fe e3 bd 10 5c 4d bd 00 3c ca 3b
       -0.016507298 -0.11132479 -0.050136626 0.0061717033
000010 a4 c1 76 3d c4 12 10 3d 24 e2 fb bd 96 e9 b2 bd
       0.060243264 0.035174146 -0.12298992 -0.08735959
000020 c4 d5 43 3d 00 68 37 bd 6e d9 e8 bd ce 37 af 3d
       0.047811285 -0.044776917 -0.113695964 0.08555566
000030 28 c5 33 3d 18 e0 21 bd 0c 28 16 3d 12 6c e2 bd
       0.043889195 -0.039520353 0.036659285 -0.11055769
000040 02 8c 9a 3d f6 df c6 bd cc 69 6c 3d 94 aa 21 bd
       0.075462356 -0.09710686 0.057718083 -0.039469317
000050 6e dd e2 bd 0c 9f 20 3d 28 69 79 3d a8 5f 1f 3d
       -0.110773906 0.03921418 0.0608913 0.038909584
000060 0a d0 ff 3d 20 20 f5 3c 62 5d a5 bd 5c a5 76 bd
       0.12490852 0.029922545 -0.08074452 -0.060216293
000070 00 a9 e2 bd 88 e1 e4 3c 60 85 c0 bd e8 26 a4 3c
       -0.110673904 0.027939573 -0.09400439 0.020038083
000080 c6 0d bf bd 74 94 ab 3d ac 05 80 3d de ae 88 bd
       -0.09328799 0.083779246 0.06251082 -0.06673978
000090 f8 5e 93 bd 90 a7 9d 3d 80 98 eb 3a 98 49 9d 3c
       -0.07195848 0.07697976 0.0017974526 0.019200131
0000a0 50 ad 53 bc 00 94 ee 3d 60 67 3c bc 38 10 05 3d
       -0.012919739 0.116493225 -0.011499256 0.03248617
0000b0 2c 77 43 3d 54 13 08 bd 78 fd b6 bc 14 11 8b 3d
       0.047721073 -0.033221558 -0.02233766 0.06790367
0000c0 90 43 a5 bc 28 70 eb bc 60 6b 67 3c 40 9e ea 3b
       -0.020173818 -0.028740004 0.014124721 0.007159978
0000d0 10 29 6a bd d0 a9 41 3c 8c 8a d1 3d 3a 0b 89 bd
       -0.057168067 0.011820272 0.10231504 -0.066915944
0000e0 94 be 91 bd 0a 6b af bd 88 42 a8 3d c0 67 65 bd
       -0.07116428 -0.08565338 0.08215815 -0.056007147
0000f0 98 b9 b4 bd 80 41 a6 bd 42 ed e7 3d c6 34 f6 bd
       -0.08824462 -0.08117962 0.1132455 -0.120217845
000100 8c aa bb 3d 32 ef fc 3d 00 9f ee 3b dc 3c 44 3d
       0.091633886 0.123503104 0.007282138 0.047909603
000110 80 59 9d bb aa 93 b3 bd 6e 5e 9e bd 28 fc ef 3d
       -0.004801929 -0.08768399 -0.07732855 0.11718017
000120 94 9c a9 bd e0 71 9c bc 40 62 3b 3d f2 da bf bd
       -0.08281818 -0.019097269 0.045747995 -0.093679324
000130 08 d5 6f bd 40 4f 6e bc 30 e4 a2 3d 10 46 2b bc
       -0.05855277 -0.014545262 0.079536796 -0.010453716
000140 a4 4f 50 3d 18 a8 c8 bd b0 da cc bc ca a6 c0 3d
       0.0508572 -0.09797686 -0.025006622 0.094068125
000150 b0 99 39 3d 02 97 8a bd a0 88 eb bd 94 e2 1e bd
       0.045312583 -0.06767084 -0.115006685 -0.0387903
000160 9e ae e6 bd 40 9f dc 3d 22 d6 e7 3d 70 7b 9f 3c
       -0.11263774 0.10772562 0.113201395 0.01946804
000170 60 04 f5 bd 80 5e df ba c8 cc 70 3d 6e 9c 8d 3d
       -0.11963725 -0.0017041713 0.058789045 0.06914602
000180 6c 47 19 bd 78 a1 db 3d 54 66 88 3d 4a 3c a2 3d
       -0.03742163 0.10724157 0.066601425 0.079216555
000190 c2 9c 86 3d 98 64 12 bd 80 11 24 bd b8 e4 1e 3d
       0.06572868 -0.035740465 -0.04005575 0.038792342
0001a0 5a eb c7 3d 60 40 18 3c 68 ca b1 bd 92 c2 ee bd
       0.097616866 0.009292692 -0.08681184 -0.11658205
0001b0 58 ef 9a 3c b8 68 65 3d e0 b5 ec bc da 1c c8 bd
       0.018912956 0.05600807 -0.028895319 -0.09771128
0001c0 10 e3 d9 bd 58 ba 45 3d 4c a6 54 bd cc 79 23 bd
       -0.10639012 0.048273414 -0.051916406 -0.039911076
0001d0 40 07 0c 3d 6c 6c 74 3d e4 92 8d 3d d2 83 a9 bd
       0.0341866 0.05967371 0.06912783 -0.08277096
0001e0 bc b9 08 3d 60 c3 ea 3d d0 40 07 bd 7c b4 24 3d
       0.033380255 0.11463046 -0.033020794 0.040211186
0001f0 b6 d6 a7 bd b0 c5 8c 3d ec e9 08 3d 0e 87 b7 3d
       -0.0819525 0.068736434 0.03342621 0.089613065
000200 74 78 2e bd d8 32 b2 3c c6 7f a7 3d 96 d2 c1 3d
       -0.04259534 0.02175276 0.08178668 0.09463994
000210 04 57 0a 3d 10 30 20 3d 8a 91 f5 bd b4 36 25 3d
       0.03377439 0.039108336 -0.1199065 0.040335372
000220 42 24 bb 3d f8 db a0 bc 40 4c de bd 00 b0 22 38
       0.09137775 -0.01963614 -0.10854387 3.8787723e-05
000230 c4 c2 db bd 64 8e 4b 3d 18 db 32 bd 76 02 a0 bd
       -0.10730508 0.04969634 -0.043665975 -0.078129694
000240 66 a1 c6 3d 4e ee 9b 3d d6 05 ce bd 16 c2 b5 3d
       0.09698753 0.076138124 -0.10059707 0.088749096
000250 ba b6 b8 bd 1c ed af 3d 8a 3f 9c 3d c0 e8 b9 bd
       -0.09019227 0.08590147 0.076293066 -0.09077597
000260 ac 34 ce bd 50 ad 53 3d a4 ed b6 3d 8c 29 94 bd
       -0.1006864 0.051678956 0.08932045 -0.07234487
000270 5a c6 e0 3d 8e e2 8a bd 90 c7 ba 3c 76 94 89 bd
       0.109753326 -0.06781493 0.022800237 -0.0671777
000280 f0 83 fa 3c cc 60 94 3d a8 48 a3 3c a4 be 91 3d
       0.03058049 0.07245025 0.019932106 0.0711644
000290 ce f4 c7 bd 00 d7 ba bb bc bf 2f bd 90 99 7d 3d
       -0.0976349 -0.0057018995 -0.04290746 0.061914027
0002a0 e0 4f d7 3c 90 38 10 3c 84 71 50 bd 1a 6e ce bd
       0.026283205 0.008802548 -0.050889507 -0.10079594
0002b0 08 db 32 bd b6 12 89 bd 3e 61 81 3d ec ef d9 3d
       -0.043665916 -0.06693022 0.063173756 0.106414646
0002c0 40 ff 73 3d 20 4b e0 bc e0 20 76 bc 9c 51 35 bd
       0.059569597 -0.027379572 -0.015022486 -0.044267282
0002d0 30 aa e0 bd 36 a6 81 3d 9e a5 92 bd 20 52 0c bc
       -0.10969961 0.0633053 -0.07160495 -0.008564502
0002e0 44 84 78 bd fc 6f e4 3d e0 27 a8 3b d0 38 bd 3c
       -0.060673013 0.11154172 0.0051317066 0.02309838
0002f0 40 72 5b 3d 98 97 48 bd 44 7b 9e 3d 20 fc 8a 3b
       0.053575754 -0.048972696 0.07738355 0.0042414814
000300 de de c6 bd ac d0 32 3d 00 c0 75 b9 7e 3b df bd
       -0.09710477 0.043656036 -0.00023436546 -0.10900019
000310 f8 89 f3 bc 5c 49 a6 bd 30 ac 95 3d 36 88 ef bd
       -0.029728875 -0.08119461 0.07308233 -0.11695902
000320 ec 0a 64 bd cc 71 ae 3d 40 38 d1 bb 76 71 f4 3d
       -0.05567448 0.08517799 -0.0063848794 0.119357035
000330 28 a2 8b 3c 10 50 b7 bd 30 db 06 3c e6 98 9c 3d
       0.017045096 -0.089508176 0.008230969 0.076463506
000340 c0 51 36 bd 00 fb a1 3a d6 79 c8 3d d0 44 43 3d
       -0.044511557 0.0012358129 0.09788863 0.047673047
000350 06 50 86 3d 64 54 7f 3d 50 31 d8 3c ee 11 ee 3d
       0.06558232 0.06233634 0.026390702 0.116245136
000360 22 0d a1 bd 1c 8f 09 bd 48 90 17 3d 32 47 b3 bd
       -0.07863833 -0.033583745 0.03700283 -0.08753814
000370 20 1f 38 3d a8 bf 26 3d c4 14 2c bd a0 1b 46 3c
       0.044951558 0.04071012 -0.04201199 0.012091547
000380 fa 99 d3 bd b6 2f 9a 3d 6e 6b 9b bd 00 8c 98 39
       -0.10332103 0.075286314 -0.0758885 0.00029096007
000390 6c e9 82 3d cc 9b 71 bd 3a c6 9f bd 76 2b d9 3d
       0.06392178 -0.05898647 -0.078014806 0.10603993
0003a0 50 0d a2 3d 10 3e 2d bc ac d9 db 3d d8 20 d9 3c
       0.079126954 -0.010573879 0.10734877 0.026504919
0003b0 40 d7 9e 3c 56 c5 e5 bd b0 22 b6 3d ec 53 fa bd
       0.019389749 -0.112192795 0.08893335 -0.12223038
0003c0 e0 3d 9d bd 94 43 69 bd 48 90 d6 bd e8 2d c7 3d
       -0.07677817 -0.056949213 -0.10476738 0.09725553
0003d0 82 b0 80 3d e8 8a da 3d b2 46 c0 bd f8 11 f3 3d
       0.06283666 0.106710255 -0.09388484 0.11868662
0003e0 38 d1 c6 3c 6c e8 44 3d 5c 72 9b bd 40 2a c7 bd
       0.024269685 0.048073217 -0.07590172 -0.097248554
0003f0 bc 58 6b 3d ec 1f c3 3d 6a 91 fb 3d 8c d3 21 bd
       0.05745767 0.09527573 0.12283595 -0.039508387
